models/03_pytorch_computer_vision_model_2.pth (torch, 36085 bytes, 10 tensors)

conv_block_1.0.weight f4 [10, 1, 3, 3]
00000000: 6dda 8c3e 0457 6b3e 1dac 9ebe e653 5f3e
00000010: 1e66 173e e74f 573d 200d bebe d510 053e
00000020: b1f1 c03e 4d2e d6be 09f0 bd3e 334a 8dbd
00000030: b1ea 903e 65f4 d63e e9ac 823d 8a7a dfbb
00000040: 8c01 c23e 0dce 85bb a3c6 b4be 95de b4bd
00000050: 087e e4bc ddc3 16bf f023 2dbf e43d 723e
00000060: d971 43bf 8e8f 0ebf 0014 573d bc89 46bf
00000070: da3a 80bf 3593 28bf a683 823e 1527 5bbf
00000080: e2cc 173e 0cc7 9b3e 58c1 afbd cc3c f13e
00000090: 5239 b5bd 91b3 993e 4d7c 0fbe 89ac 1cbe
000000a0: 9f62 7d3e 9c01 adbe 1a00 023e 9f46 b33e
000000b0: cb45 613d a6ee 1cbe 28cb 353e 7693 513d
000000c0: 6f0d 263e 6a56 54be e5f1 a9be bba5 06be
000000d0: 7bc0 83be 2ddd 823e f1b8 2f3e 4c6e 513e
000000e0: 1644 9c3b 01d1 ed3c 255b c33d c6b4 83be
000000f0: 7241 1c3e dcfd f0be 96d5 1c3e 60e9 fcbd
00000100: b3d9 923d 0dce 0dbe e381 b93e 4f06 6abe
00000110: 00b8 94be 2c32 3abe eff8 b13e 5343 d63d
00000120: c609 e33e 9539 bdbe 8fc5 debe 1623 8cbe
00000130: f73f b8be e912 233d 0a65 9e3e d7ba f93e
00000140: ab5b c1bd 3927 68be 3a18 353e 8805 0abe
00000150: 24e7 4f3e 5a4e a4bd 31c1 423e 6488 84be
00000160: 2bf5 2bbe 0b27 d13d
0.27510396 0.22982413 -0.30990687 0.21809348 0.14785048 0.052566435 -0.3711939 0.12994702
0.37684396 -0.418322 0.37097195 -0.06898918 0.28304055 0.41983333 0.06380636 -0.0068200277
0.37891805 -0.004083401 -0.35307798 -0.08831517 -0.027892128 -0.58892614 -0.6763296 0.23656422
-0.7634559 -0.556878 0.052509308 -0.77553916 -1.001796 -0.6584962 0.25491065 -0.8560651
0.1482425 0.30425298 -0.08581799 0.47116697 -0.088488236 0.3001981 -0.1401226 -0.15300192
0.24744652 -0.3379029 0.12695351 0.35014817 0.0549982 -0.15325412 0.17753279 0.05116602
0.16216062 -0.2073609 -0.33192363 -0.13149159 -0.25732788 0.2555937 0.17160393 0.20452231
0.0047688587 0.029030325 0.09538869 -0.25723857 0.1525934 -0.4706868 0.15315852 -0.123492
0.07170429 -0.13848133 0.36231908 -0.22853969 -0.2904663 -0.18183202 0.34760234 0.1046206
0.44343394 -0.36957994 -0.435101 -0.27370518 -0.359863 0.039812956 0.30936462 0.4877536
-0.094413124 -0.22671212 0.17685023 -0.13478673 0.20303017 -0.08022757 0.19019009 -0.25885308
-0.16792743 0.10212525

conv_block_1.0.bias f4 [10]
00000000: d3fe 663d d8d5 033d 6bc6 6e3e 8387 5a3e
00000010: 0063 9a3c 5552 52be 4e48 e23d 02d6 9cbd
00000020: f8f2 eebd d129 a5be
0.056395363 0.03218636 0.23317878 0.21340756 0.018846035 -0.2053922 0.11048947 -0.07658006
-0.11667436 -0.32258466

conv_block_1.2.weight f4 [10, 10, 3, 3]
00000000: 311c be3c e21b 133c befd f0bc e8b1 09be
00000010: bed5 27be d553 2dbe e084 6abd 8d8f 30be
00000020: c7b5 1cbe 55e7 9dbd dfd2 1f3c 4dc2 a8bd
00000030: 5a96 fcbd 09df 98be 0aa8 86be 8aed 25bd
00000040: 2cdf 43be 9095 74be 3e11 f2bc 6710 883c
00000050: 59c1 f83d bf0f d23c d856 603e f903 473e
00000060: a426 09be fcc0 91bb 6d0f bb3d 09e7 07be
00000070: eb98 11bd 60f1 59be c252 993d 8721 f53b
00000080: ee2a e0bd 145f 403e 3335 943d 8f5b 8a3d
00000090: 83fb 1dbe afae 29be ae67 55bd 4f7d b0bd
000000a0: ea8f 8abd ab4a 41be 1cf7 0c3e 730e 00be
000000b0: 811e 8fbd 349a b63c ea04 603d c10a af3d
000000c0: 7d3e c53d 5b3c abbd a9a1 e33c d2ee 37bd
000000d0: c72b 47bc 12ad 9ebd 1817 eb3d c01d 85bd
000000e0: b707 29bc 3f55 b73d 88ae 5a3d c2d9 3fbd
000000f0: c78f 993d 37f5 c1bb 9760 85bd dab8 b0bd
00000100: aa08 373d 20ba fdbb 94f1 06bd 9205 ae3d
00000110: f21b 703c b47e 2cbd 4d31 52bd e788 c3bc
00000120: 78e6 6f3d 8cf4 c1bc 312b 56bd c918 0fbd
00000130: 6544 99bd 8925 2c3d 204e f53d 6482 bdbd
00000140: f84d d2bc de06 5f3d f96e 9c3c 689e 19bd
00000150: 2a5a 613d c5e4 623d 8180 213d d7bc 97bc
00000160: 25a4 e4bc 4dc2 383c da12 42bc 9aa5 5ebd
00000170: e89e 963d 05c4 e63d f28a 80bb 4b3c 1cbd
00000180: 21e7 993c b2f8 a73c a5be 2f3c 072e d93c
00000190: 0957 c5bd 8405 2ebd 2c57 c33d 41f6 653d
000001a0: 59d5 ecbc 87a0 90bd 7253 7abd b311 e1bd
000001b0: db86 0ebd 3759 fe3c e809 933d 6752 483d
000001c0: 528f c1bd b560 8dbd edd4 7dbc 80e9 dd3d
000001d0: 4110 473c 12dd a3bc c2a7 3f3d 7961 56bd
000001e0: 28ed 7abd 8731 c03d 170f eabc 1515 b5bc
000001f0: 775d eabd 0410 ea3d cdff 973d 06ec 0a3d
00000200: 652e a9bd eceb d7bd 769f a8bd 11b2 853d
00000210: 2dd5 2e3d 437e c83d 748f 333d 444c db3c
00000220: a88e 71ba 0d29 a4bd 84c2 b8bd 16a7 c9bd
00000230: c619 313d 8c33 54bd 07e8 adbc 2182 78bd
00000240: 37e0 08bd 25b2 9bbd 1b71 7fbd 3e85 253d
00000250: 684a f6bc 1075 963d 1b41 02bd 65ab a4bd
00000260: 707a b5bc 86e4 37bd 7073 12bd 538c cebd
00000270: 9bc8 843d 7c14 82bd f9c1 5a3d 0d6e 433d
00000280: 7f13 ab3d d790 95bd 5141 a83d 8858 66bd
00000290: 84c2 f93c 8a78 bf3d 305e 73bb f12b 793b
000002a0: 7873 0abd 540c 96bd 25c6 713d 984e d6bd
000002b0: 9000 863d 1488 a13d b114 cc3d b9ab cbbc
000002c0: 895d b1bd 6a1f c23c bc83 6e3d 33dd d6bd
000002d0: 33a1 c9bc c6f9 83bd 50e2 15bc 4d28 55bd
000002e0: 74dc 2bbd a696 08bd bead ccbd d099 ac3d
000002f0: 1c96 b03d 12aa 88bc 80ab 4abc 918b 2cbd
00000300: 3033 c4bd 9e67 d0bd 788e 253d acbe 77bd
00000310: 8b54 90bd 2357 17bc d488 1bbd b94d 17bd
00000320: 172a ed3a 6452 babc 2a85 13bd d3e6 53bd
00000330: 3957 aebd 9a9b ba3d 1839 2cbd fa6c d33c
00000340: 1214 20bd f8f6 e33b b97d c93d 0fa6 463d
00000350: 40ad bfbd 12ec 113d c66a be3d 95fc a83c
00000360: d09b 8f3d eccb d33d 513d 88bc 76a3 ae3c
00000370: e51f 96bd 632a b6bc 55ef 933d 072f 4b3d
00000380: 1153 94bd fc1b adbd 8a89 93bd 9c0b d5bd
00000390: 7b94 a6bd 956d d5bc 2eba 913d 438e 903c
000003a0: 1d1a a4bd f230 adbd bf06 4d3d 01fa a6bd
000003b0: fb2b 87bc 0910 4c3d 2fdf 4fbd 065f 5cbc
000003c0: 4150 2cbc b919 d4bc c6b4 5fbd 036b c0bd
000003d0: 767f aebd 0e3f 67bd dc69 d03d 850f 50bd
000003e0: 7e69 91bd 0f6e ce3c 97f2 db3c 656a 633d
000003f0: aa2d a53d a458 703d b0fb d5bd 6fd8 203c
0.023206802 0.008978816 -0.029417869 -0.13446772 -0.1639013 -0.1692651 -0.057255626 -0.1724226
-0.15303718 -0.07710139 0.009754865 -0.08240185 -0.12333365 -0.29857662 -0.2630008 -0.040509738
-0.19128102 -0.23885179 -0.029549237 0.016609384 0.12146253 0.025642274 0.21908128 0.19435109
-0.13393646 -0.0044480544 0.091338016 -0.13271727 -0.035546225 -0.21283484 0.07486488 0.0074808034
-0.10945688 0.1878627 0.072367094 0.06755745 -0.15427975 -0.16570543 -0.05210083 -0.08617651
-0.06765731 -0.1887614 0.1376614 -0.12505512 -0.0698824 0.022290327 0.054692186 0.08546973
0.09631059 -0.08361121 0.027787047 -0.04490549 -0.012156433 -0.07747854 0.11479014 -0.06499815
-0.010316781 0.08951806 0.053389102 -0.04683853 0.074981265 -0.0059191245 -0.06512564 -0.08629008
0.044685997 -0.007743135 -0.03294523 0.08497156 0.0146551 -0.04211302 -0.05131655 -0.023868991
0.0585694 -0.02367618 -0.052287284 -0.034935746 -0.07483748 0.042027984 0.11977792 -0.09253386
-0.025671944 0.05444991 0.019095885 -0.037504584 0.055017628 0.055393953 0.03942919 -0.018522663
-0.027910301 0.011276794 -0.011845315 -0.05435715 0.07354528 0.112678565 -0.0039228136 -0.038143437
0.018786969 0.02050433 0.010726606 0.026511205 -0.09635741 -0.04248573 0.09538111 0.05614305
-0.028910326 -0.07061868 -0.061114736 -0.10989704 -0.034796577 0.0310484 0.07179624 0.04890671
-0.09451164 -0.06903211 -0.01549266 0.10835552 0.012149871 -0.020002875 0.046790846 -0.05233905
-0.061261326 0.093844466 -0.028571649 -0.02210478 -0.11443608 0.11428836 0.07421837 0.033916496
-0.08260802 -0.105430454 -0.0823354 0.06528104 0.04268377 0.097897075 0.04383798 0.026769765
-0.0009214678 -0.08015642 -0.09021476 -0.09846322 0.04323747 -0.05180697 -0.021228803 -0.060670976
-0.033416953 -0.07602338 -0.062363725 0.040410273 -0.030064777 0.07346547 -0.03180037 -0.080405034
-0.02215311 -0.04489567 -0.03575462 -0.100853585 0.06483575 -0.06351563 0.053407643 0.047712374
0.08353328 -0.07303017 0.08215583 -0.056236774 0.03048826 0.09349163 -0.0037134998 0.0038020576
-0.033801526 -0.0732657 0.059026856 -0.10464209 0.06543076 0.07887283 0.09964884 -0.024862157
-0.086604185 0.02369662 0.0582311 -0.10491409 -0.024612999 -0.06444125 -0.009148195 -0.052040387
-0.041958287 -0.033346795 -0.09994076 0.08427775 0.08622381 -0.016682658 -0.01236999 -0.04212529
-0.09580076 -0.101760134 0.040419072 -0.060484573 -0.07047375 -0.009237084 -0.037972286 -0.036939356
0.0018094209 -0.022744365 -0.036015667 -0.051733803 -0.0851273 0.0911171 -0.042046636 0.0258088
-0.03908164 0.006956931 0.09838433 0.04849821 -0.09359217 0.035625525 0.09297709 0.020628253
0.07012141 0.103416294 -0.0166308 0.021318179 -0.07330302 -0.022237008 0.07223383 0.049605396
-0.07242406 -0.08452603 -0.07203968 -0.10402605 -0.08133789 -0.02605323 0.07115589 0.01764596
-0.08012793 -0.08456601 0.05005526 -0.08153153 -0.016500464 0.04981998 -0.050749954 -0.01345039
-0.010517181 -0.025891172 -0.05461576 -0.09395411 -0.08520405 -0.056456618 0.10176441 -0.05079605
-0.07100199 0.025198964 0.026849074 0.055521388 0.0806535 0.058678284 -0.10448396 0.009817227

conv_block_1.2.bias f4 [10]
00000000: e2c1 c13e eb62 2cbd 01f2 84bd d7a3 c23e
00000010: 37f8 cfbd d0cd 8f3d 69a1 783e 03b7 24bd
00000020: 6210 8b3e fc59 3f3c
0.37843233 -0.042086523 -0.06491471 0.38015625 -0.10154765 0.070216775 0.24280323 -0.040213596
0.27160937 0.011679169

conv_block_2.0.weight f4 [10, 10, 3, 3]
00000000: 79e9 293c 5d2f c8bd 2ca2 00bd c8fc 4ebc
00000010: ed48 dbba 07fd d83d 0a52 96bd 61bd 3e3d
00000020: 8444 e43d 9729 6c3d 13d9 c3bd e512 2dbd
00000030: abb1 bcbd 6a0e 86bd 1b7d 6c3d 8e8e 60bc
00000040: 935b 333d 3936 79bd 82f4 833c 5771 82bd
00000050: bc51 583d 29e9 3cbd 8c3a d9bc b5be bbbd
00000060: ca0d 0c3a 4002 cd3d 0abe 513d f2af 7cbd
00000070: adf3 bc3c f1c4 3fbd 7360 dabd 4a98 dd3d
00000080: 5a98 58bd 2a65 923d 521b 9abd e6f6 d5bd
00000090: 0008 0f3c f603 7e3d 16bf b13b 99db 28bd
000000a0: 2d18 fe3d 31f3 0abd 25b6 26bd 5dbb b0bc
000000b0: c133 b03d fd73 6d3c d168 36bd 9c52 8cbd
000000c0: 71e3 05bc c051 d5bd d362 c9bd 8f07 cd3c
000000d0: 0d64 b83d 0301 c13d 88ac 14be aaa1 e83d
000000e0: 3182 dcbd 704b 253c 2ee2 083e 492f 2a3d
000000f0: 4fe3 3b3e 707f db3d 84f7 26bd 9750 333d
00000100: 940d b1bb ab41 e13c 1c8e 05bd 03dd 283d
00000110: e09f edbd 2bbe 8d3c ae58 3fbd 4699 80bd
00000120: a3fe 04be 230c a0bd ead5 10bd dbb1 5d3d
00000130: 785a 0f3e 5459 b63c 71af 0dbd e8f9 9cbd
00000140: 4f0e b1ba 61e7 043e a980 b9bd 38cc 1e3d
00000150: 8677 1e3e cc91 b83c 86f7 89bd c3a8 bd3d
00000160: 2b93 733d 0733 6c3d 4a50 dc3c d8f4 a4be
00000170: bcdd 14be c4a2 2d3e abc0 84be 5877 08be
00000180: 7c48 ebbb 9948 253e e5ea fb3c 8933 eb3c
00000190: 43dd 0abd 48e8 dfbd d4b8 73bd 85d0 b23d
000001a0: eee8 15bd 999e 0a3d 687d 36bd 177d 8b3d
000001b0: f434 823d f055 173d a204 5dbd 5786 afbd
000001c0: 0e97 833b a365 7ebd cb3b b23d a60b d0bd
000001d0: c2cc 3e3d 29c5 9dbe d8d2 093f e41a b53e
000001e0: 20e7 c2be a8fa 583f 8375 f13e 152a 46bf
000001f0: 4e19 3ebe 9144 31be 0842 253d 36e5 313d
00000200: 42f9 6cb9 26dc 98bd 0dbc 2abe 0fb2 febd
00000210: 59fd 5d3d 7677 3bbe cba8 02be ad78 6e3e
00000220: 030f 07bf 77fa 39be 7745 373e 4962 413e
00000230: f866 de3d 0036 8abc bcfa 1a3e 317d 523e
00000240: a579 24bf 118e 053d 51e3 263e 47bc f8be
00000250: 7aac 863e 87c4 d43e 89c4 5fbe 1000 1cbe
00000260: 7615 d5bd c2ec 95bd b2fe 35be 9183 673d
00000270: 54f7 90be 9b5c 123d f005 20be 720f 18be
00000280: 5fe8 0bbe 725e aebd 331f 15bf 1ada 1d3e
00000290: f28b 233f 7d7b 97be 7458 0b3f cee5 e23e
000002a0: 1bd9 c9be 7a53 83bd a476 e3bd 1c9b c03e
000002b0: 5838 ff3b 89f7 6ebe a19f 553e ba9a 1f3c
000002c0: c5b7 d3bd 4c31 11be ac6c ccbd 008b 3d3e
000002d0: 0c2c 58bd 7f57 9e3d 8a9c a93d 7e62 adbd
000002e0: 5778 c8bd 5a8d b4bd 73fb 90bd d4bc 5cbd
000002f0: 1ce4 1cbc 01d6 cfbc 80b6 58bd 505d 07bd
00000300: 4127 18bd f8df d53d 94ea 1bbd 3805 9cbd
00000310: 9589 323d a53c 8fbb a245 a53d abe9 863d
00000320: c940 c63d af0b 9ebd 43c5 8a3d 672f b53d
00000330: d55b 55bd 8966 c63d ece0 a13d 3c0d e5bc
00000340: 7dfa a63d 02cb 1bbc 1e53 fabd f4e2 353d
00000350: be0c 353d 2309 00be ad76 ea3c 65c9 17be
00000360: 889f c73d 8b82 c83d 8623 4b3d 557b 82bd
00000370: 5f51 613d 1465 573d b7eb a83b fe7e d33c
00000380: e2bf a03d d524 2ebd 0ce1 78bc d31f 843c
00000390: d4f1 2c3c 7d89 cd3d 7b4f 44bd 116d 5ebc
000003a0: 550c 9b3c 40dd 20bd 7597 c93d 2e03 a7bc
000003b0: e89c aebc a7d6 e13a ff33 aebd a3fe c03d
000003c0: 4fbc 65bd d43f 05be dde5 783c 0bb1 473c
000003d0: 8c5e 36bd 2201 193e 6493 2abc d97c 6b3d
000003e0: 9aa4 a23d 6a5b eabd 75d4 803c 4ec1 d03d
000003f0: 82a9 a0bd 9e08 b0bd a409 0a3e 0e30 973d
0.010370606 -0.09774659 -0.03140466 -0.01263351 -0.0016730108 0.10595136 -0.073398665 0.046567325
0.11145881 0.05765685 -0.09562888 -0.042254347 -0.09213575 -0.06545718 0.057736497 -0.013705863
0.043788504 -0.060842726 0.016107801 -0.06369274 0.052812323 -0.046120796 -0.026517175 -0.09167234
0.0005342631 0.10010195 0.051206626 -0.061691232 0.023065412 -0.046818677 -0.106629275 0.108200625
-0.05287967 0.07148202 -0.07524742 -0.10447483 0.008729935 0.062015496 0.0054243905 -0.04122505
0.12406955 -0.03392333 -0.04070105 -0.021573717 0.08603621 0.014492986 -0.044533554 -0.06851694
-0.008171902 -0.10415983 -0.09833302 0.025028018 0.09003458 0.09424021 -0.1451894 0.1135896
-0.107670195 0.0100887865 0.1336753 0.041549 0.1834843 0.10717666 -0.040763393 0.04377803
-0.00540323 0.027497133 -0.03260623 0.0412264 -0.11602759 0.017302593 -0.04671543 -0.062792346
-0.12987761 -0.07814815 -0.035360254 0.054124694 0.13999355 0.022259392 -0.034591142 -0.07664853
-0.0013508293 0.12978889 -0.09057743 0.038768977 0.15475282 0.022530459 -0.067366645 0.09260704
0.059466522 0.05766585 0.026893754 -0.3221805 -0.1453771 0.16956621 -0.25928244 -0.13326776
-0.0071802717 0.16140975 0.030751655 0.028711097 -0.033902418 -0.10932976 -0.059502438 0.08731178
-0.036599092 0.033842657 -0.04455319 0.06810968 0.06357756 0.03694719 -0.053959496 -0.08570545
0.00401581 -0.062108647 0.08702811 -0.10158472 0.04658199 -0.30814484 0.5383735 0.35372078
-0.3806696 0.8475747 0.47159967 -0.7740796 -0.1856434 -0.17311312 0.040346175 0.043431483
-0.0002259957 -0.07463865 -0.16673298 -0.12436306 0.05419669 -0.1830729 -0.12759702 0.23288222
-0.5275728 -0.18161951 0.17897592 0.18885149 0.108594835 -0.016871452 0.1513471 0.20555569
-0.64248115 0.03260619 0.16297652 -0.48581144 0.26303464 0.41556188 -0.21852316 -0.15234399
-0.10404484 -0.073205486 -0.1777294 0.056521956 -0.28313696 0.035732847 -0.15627265 -0.14849642
-0.13662861 -0.08514108 -0.5825073 0.1541523 0.63885415 -0.29586402 0.54431844 0.44315952
-0.3942345 -0.06412406 -0.11106613 0.3761834 0.007788699 -0.23336615 0.20861675 0.0097414795
-0.10337786 -0.14178962 -0.09981665 0.18510056 -0.05277638 0.07731532 0.082818106 -0.084660515
-0.09788578 -0.08816023 -0.0707921 -0.053891018 -0.00957587 -0.0253706 -0.05290842 -0.033047974
-0.03714681 0.10443109 -0.038065508 -0.07618183 0.04358824 -0.004371243 0.08069922 0.065875374
0.096803255 -0.07717072 0.06775906 0.08846932 -0.05208953 0.09687526 0.079042286 -0.027960412
0.081532456 -0.00950885 -0.122228846 0.044405892 0.044201605 -0.12503485 0.028621042 -0.1482292
0.09747225 0.09790524 0.049594425 -0.0637118 0.055009242 0.05258663 0.0051550525 0.02581739
0.07849099 -0.042515595 -0.015190374 0.016128456 0.010555703 0.100359894 -0.04792736 -0.013575808
0.018926779 -0.0392735 0.09843341 -0.020387258 -0.021315053 0.0017230109 -0.08506011 0.09423568
-0.05608779 -0.1301263 0.015191522 0.012188206 -0.04452376 0.14941838 -0.010411117 0.05749211
0.079415515 -0.11443217 0.015726307 0.1019312 -0.07844831 -0.085953936 0.1348024 0.073822126

conv_block_2.0.bias f4 [10]
00000000: 82a9 cabd b8ef 023e 5237 bbbc 35ea 12be
00000010: 69cf a0bc 8a54 babd 5286 3d3e d4e9 d63e
00000020: c765 3d3f a241 46bd
-0.09895612 0.12786758 -0.022853527 -0.14347155 -0.01963015 -0.09098156 0.1850827 0.41975272
0.73983425 -0.048402436

conv_block_2.2.weight f4 [10, 10, 3, 3]
00000000: c1e4 b5bd 3c64 06be 4111 8bbd 27f5 3cbd
00000010: 206e 48ba ac60 4fbd 4bcf 1d3d 3125 c2bd
00000020: 8f8f 6c3d a04d 9abd 943f 8dbe 90a6 d83c
00000030: 2059 4fbe 359d 58be d076 0dbf 1134 d93e
00000040: 0ae4 853e 43d4 63bf 021e 15bd b24b a83b
00000050: d843 823d 755b 2abe 16a2 913d 868c 0bbc
00000060: 4155 86bd 8c5a c93d 0aa8 08be 8f73 0abe
00000070: aa4b 873d a20b b3bd 7676 ecbd 110d 36bd
00000080: 9e97 4cbd a135 1fbd 3644 1dbd db5b 613d
00000090: d5c0 1bbd 182e 823d 5a67 a23d 6037 4bbc
000000a0: 5453 2abc 20a4 6a3c 2117 36bd afb4 0bbd
000000b0: 6028 3bbd 4b8d 1dbe b4ee 28be 9892 5e3d
000000c0: 509d b8bc e205 ebbc 44b3 da3d 597b 883c
000000d0: ea03 29bd 0e8c 9ebc 48f2 78bd 0fc2 51bd
000000e0: b00a 55be 8457 9abe 281a afbd 29ea b53e
000000f0: 9963 f3bd f718 26be af63 933e 3839 de3e
00000100: 0d05 333e 18f9 7dbd a61d 78bd d8b7 23be
00000110: 2906 233d 8272 923d a2fd 1bbe a861 4fbd
00000120: 264f c13e 3a00 4dbe d010 cb3c 1a36 063e
00000130: 5c64 89be 9a69 7d3e 51ff c4be 5e5f ccbe
00000140: cac2 5abe 9428 2abd 998f ee3c 52de 6abd
00000150: bdc9 0c3d 0dd5 84bd 0918 10bd fa58 593d
00000160: 3d31 37bc 6451 2cbd 79b9 063d 63d7 0c3d
00000170: aec2 60bd 9de3 bdbd 64bc e93c 0007 82bd
00000180: 542c 023e 8c82 ecbc 5512 403c d021 513e
00000190: 14fa 80bb 52ed 82be 9b3a 913d 9d66 91be
000001a0: 8085 b33e f1ac 5abe 228e 4fbf d41e 8b3e
000001b0: 7633 a53c c6fa a93b 5750 fd3d c327 e53d
000001c0: 87b4 55bd ca22 8bbc af50 e1bc 8918 d6bd
000001d0: 3029 c9bc 8d3c 1abd 6394 093e 1eea e63d
000001e0: c1f6 a93d 2851 42bd 48de 1bbd 4b0a 273e
000001f0: 7461 293c 4655 193d 26d7 173d cc65 803d
00000200: 6010 d03c 9a10 333d c428 26bd 83aa 0c3d
00000210: d8a9 803d 7092 c4bd 0b31 9bbd b673 46bd
00000220: b78b b93d 8684 6e3d 2b29 29bb e5c9 33bc
00000230: 183f bf3d 644d 513e fa54 043e 347d 803d
00000240: df01 93be 10c1 903d 055b 663e 8021 8fbe
00000250: 4c00 7a3e 1f6d 2cbd 2577 c1bd f1c8 b43e
00000260: a765 96be ad71 dcbc 8f8b 39be c450 343c
00000270: 5f1f 293d 078f babe bafd 05be 82b1 e73d
00000280: 4def dcbe 33cf 633e 66e8 35bd 95fd 67be
00000290: f0d6 bdbc 441f 953e 47f9 2f3d 5471 8fbe
000002a0: 07f7 183e 0497 cb3d 346b 1dbd e46c 79bc
000002b0: edda 383d a511 a53d 13f9 6bbd f1fb 88bd
000002c0: 6228 193d 68d6 953b 6fe7 4abc b244 c8bd
000002d0: d2fa cf3d c311 7d3d 6643 1dbd b3cb 57bd
000002e0: e523 0e3d 24a1 10bd 6905 2e3b 9480 1f3e
000002f0: 7a4a 03bd 1ccf adbe 2823 babd 33b0 1cbf
00000300: 1c62 1abf 3a5d 423f 58b2 05be a854 87be
00000310: 5f39 043e e0a9 9d3e 6995 373c b388 c2bb
00000320: 0ca6 6ebc d53d 243d 1695 d93c 549a 843d
00000330: b49b 4e3c 9935 d8bd 08c3 703d 22b1 adbd
00000340: 49d0 f63d 0f1f 853c 5524 373d 0d69 293d
00000350: d73a f8bd 08af 793d 7383 83bc 9975 d13c
00000360: 68e0 ac3d 9204 06be 97e6 debc 83de f9bc
00000370: 0bb8 cb3c 36da d8bd fc06 9b3d 2211 9c3c
00000380: 8787 cd3c 1ba8 833e 173f 333d 8cdf 6fbe
00000390: 5c8d 8c3e 73f6 3d3d c634 e0bd 09a9 ec3d
000003a0: cbae c73c 2197 20be bd65 5dbe fef9 95be
000003b0: b91a 8f3e 0eec 2bbd bd70 16be e64a b9bc
000003c0: 5a71 04be bb87 e43c ac37 a93d fb69 e8be
000003d0: 3672 fd3e 1ced 543d 2d5b 59be 38f2 bf3d
000003e0: 8d77 dbbd 0017 623a 0edf 6dbe 7d6e 60bc
000003f0: 0a0b ef3d 9a80 5ebe a979 523e f6e6 c83a
-0.08881522 -0.13124174 -0.067904 -0.046132233 -0.00076458044 -0.050629303 0.038527768 -0.0947975
0.057754096 -0.07534337 -0.2758757 0.02644661 -0.20248842 -0.2115372 -0.5525942 0.42422536
0.26150542 -0.8899576 -0.03640557 0.0051359767 0.063605964 -0.1663645 0.071109936 -0.00851739
-0.0655923 0.098317236 -0.13345352 -0.13520645 0.06606229 -0.08742453 -0.11546032 -0.044446055
-0.04994928 -0.038869504 -0.03839513 0.05501924 -0.038025696 0.06356448 0.07929869 -0.012403339
-0.010395844 0.014321357 -0.04445565 -0.03410786 -0.0456928 -0.1538593 -0.16497308 0.05433902
-0.02253595 -0.028689329 0.106787235 0.01666038 -0.0412635 -0.019353893 -0.060777932 -0.05121046
-0.20804858 -0.30144894 -0.08549911 0.35530213 -0.11884231 -0.16220461 0.2878699 0.4340303
0.17482395 -0.062005132 -0.06057515 -0.159881 0.039800797 0.07150747 -0.15233472 -0.05063024
0.37755698 -0.20019618 0.02478829 0.13106576 -0.2683438 0.24747315 -0.3847604 -0.3991651
-0.21363369 -0.041542605 0.029121207 -0.057340927 0.03437208 -0.06485949 -0.03517917 0.05306337
-0.011181173 -0.042069808 0.032891724 0.034385096 -0.05487316 -0.092719294 0.028532214 -0.063489914
0.12712222 -0.028870843 0.011723121 0.20423055 -0.0039360616 -0.25571686 0.07091256 -0.283986
0.3506279 -0.21355034 -0.8107625 0.27171957 0.02016614 0.005187365 0.12368839 0.111892246
-0.052174117 -0.016984362 -0.027504293 -0.104538985 -0.024555773 -0.037655402 0.13435511 0.11275123
0.08299018 -0.047440678 -0.03805378 0.1631252 0.010338176 0.03743484 0.037070416 0.06269416
0.025398433 0.043717004 -0.04056622 0.0343423 0.06282395 -0.09598243 -0.075777136 -0.048450194
0.090598516 0.058231853 -0.0025811892 -0.010973428 0.09338206 0.20439678 0.12923041 0.062738806
-0.28712365 0.07068074 0.22495659 -0.27955246 0.24414176 -0.042096253 -0.09446553 0.35309556
-0.2937443 -0.026909674 -0.18119644 0.011005584 0.041289683 -0.36437246 -0.1308507 0.11313154
-0.43151322 0.22247009 -0.044411086 -0.22655328 -0.02317378 0.29125416 0.04296234 -0.2801615
0.14937983 0.09940913 -0.038432315 -0.015223715 0.04513066 0.08060006 -0.057610583 -0.06688679
0.037392028 0.0045726784 -0.01238428 -0.097787276 0.10155262 0.061784517 -0.038394354 -0.052684497
0.0347022 -0.035309926 0.0026553518 0.15576392 -0.03205345 -0.33947074 -0.09088737 -0.6120636
-0.60305953 0.759235 -0.13056314 -0.26431775 0.1291251 0.30793667 0.011205056 -0.005936706
-0.014565956 0.04009803 0.026560348 0.06474748 0.012610365 -0.10557098 0.058779746 -0.08481051
0.12051446 0.016250161 0.044712383 0.04135995 -0.12120598 0.06095794 -0.01605389 0.02556877
0.084412396 -0.13087681 -0.027209563 -0.03050161 0.024868032 -0.105884954 0.075696915 0.019051138
0.025089039 0.25714192 0.04376134 -0.2342512 0.274516 0.04637761 -0.10947566 0.115556784
0.02437534 -0.15682651 -0.21620841 -0.2929229 0.27950075 -0.041973166 -0.14691444 -0.022618722
-0.12933865 0.027896753 0.08262572 -0.45393357 0.495012 0.051983938 -0.21226187 0.093723714
-0.10716162 0.0008624643 -0.2322962 -0.013698217 0.116720274 -0.21728745 0.20554222 0.0015327621

conv_block_2.2.bias f4 [10]
00000000: 7d67 633d 961d 6abe a080 553e 89f9 b13d
00000010: 4897 8fbd fb3a 813d 1750 be3d 1711 f8bc
00000020: 82ae 41bd 9db7 0fbe
0.055518616 -0.22862849 0.20849848 0.08690173 -0.070112765 0.06310078 0.0929262 -0.030281587
-0.047285564 -0.14034887

classifier.1.weight f4 [10, 490]
00000000: c8fc aabc 0cc8 63bd 7d93 d33d 6c25 50be
00000010: a1a9 c0bc 3d5f 9bbd fd6a 993d 8ba9 293d
00000020: 773c 453e ab53 e63d 9d79 5ebe 2351 853c
00000030: babd 503e 7d6c ff3d 29f5 373d bd83 043e
00000040: d188 8e3d 5a1d 06bb 26b3 413e e353 5f3c
00000050: 9395 87bd 4caa 87bc 1dcb 173e e351 653d
00000060: da76 c1bc 5063 2b3e c665 603c 2937 1ebd
00000070: c404 86bd 7d37 ce3c 72aa 59bd 0f1d e3bd
00000080: 0936 ae3d 3e3a 19be ac7a 21bd 9c47 0d3d
00000090: 1ea4 c6bd 2880 6cbd fa6b 3cbe d0f8 bbbd
000000a0: d243 653d f8c9 9ebd fdb9 c93d 5c4e 07be
000000b0: e1f2 19be a217 84bb 7548 9dbc a580 ae3e
000000c0: 8273 97bd a926 613d c695 c73d 6468 0fbe
000000d0: 2e3b d9bd 330b 29bd f43c c63d 85a8 843d
000000e0: 6055 223d 48b2 27be dc1b 2ebe bfee 143d
000000f0: a1d3 0ebe 5721 42bc 4ef3 d6bc a083 713c
00000100: 7ccf 313e 13d9 5abd 1fd9 4a3d e916 c3bd
00000110: 1158 633e d9ce 8b3d c3fb 88bc f7ee a43d
00000120: 40c2 b4bc 19b3 e63c ac09 bd3d f538 723e
00000130: d527 ef3d 4497 603d 5af1 c73c 7599 33bd
00000140: df80 8bbd e9a5 303d 0703 913d e546 7a3d
00000150: 7f10 14be abbf b03a a095 67bd 7e40 acbd
00000160: 75ed 16bd 0062 8dbd e89d 973d ccd7 4ebd
00000170: 67d4 43bd 7fc0 8a3e 59da 3cbe 57c5 37be
00000180: af8d d63c 1275 91bb 0937 d33c b69d d6bd
00000190: 316f 1b3e c231 69bd 3a88 943c 4ac5 163e
000001a0: 8f93 4a3c 8b8a 563e 5a2a 143e 5b9e 503d
000001b0: 23e9 683c 8960 febc 12c3 9f3d ea0c 8e3d
000001c0: 9bce 5b3d de32 043e fbdf 483e 48a7 e4bb
000001d0: 3c53 d3bc cf9c 6fbd 3fa0 d0bc 761e e1bc
000001e0: 63a7 dbbd 22eb 633e 7289 1abe 4015 2dbd
000001f0: ffd6 273e 3866 abbd 0206 89be 0b84 3cbd
00000200: d5fe d53d 76b0 83bd afc3 21be 51ae bc3d
00000210: 633a bc3d 12bb f6bd a36a 823d f7b1 253c
00000220: ae0d cebd 9cb1 18be 743c e1bd abac 8b3d
00000230: f198 ff3c 853c a23d fd24 19bc 4d77 17be
00000240: 4cb2 b0bd 3024 0abe 554d e8bd 07ab 863e
00000250: fd93 20bd d71e 64bd d592 4bbd f12e de3d
00000260: a0f1 d23d c48e ab3b 2454 a8bd d421 f7bd
00000270: a0dd 18be 2115 303d daf6 2d3d 1998 f9bd
00000280: b2f3 cdbd ac7a 1ebe 39bb 98bd 1c59 72bd
00000290: f61b 3f3d b760 dbbd abf3 da3b c8d3 6fbc
000002a0: a63e b23d 5c28 ab3c a65c e63b c93c a33c
000002b0: 4673 5c3c 4769 103e 6cdc fe3d 312f 6cbd
000002c0: e5ad 533e cdbb 44bc d6cf b8bd fb3d 60bd
000002d0: 59b3 17ba 29e2 3c3e f34c 05be 18cf 863e
000002e0: 52de cfbd e5cd c2bd 1f5d 6fbc 33f5 b1bc
000002f0: b04a 0c3e c031 aabd d960 903d 8ead 12be
00000300: 9819 3e3c 44d9 90bd b80b 85bd 9eb3 a13d
00000310: 1b62 9dbc 00ff bd3c 6ee3 1cbd 8486 203d
00000320: 200c 8d3d 5938 30bd 6f29 01bd 3f5b 013d
00000330: b094 4fbd 87a4 803e 0310 653e 8a1b 863d
00000340: 76ed e1bd 22d1 81bc 8837 f23d 8d3f 983d
00000350: 87ec 813d 5fe2 683e 1d01 443d 94b5 433e
00000360: 7155 3d3e bee2 8b3e b377 a73d 88d2 28be
00000370: 25e5 e7bb 3daa 1bbb b5f3 0e3e 5804 0d3d
00000380: cc2d b83d 79ce 4dbe f20f 45be 011c 903d
00000390: d57a d53c 91a0 4c3d ecbe 0abd e131 97bd
000003a0: c307 5abe 464a e43c 5a83 6f3c ba2f 27bd
000003b0: c16b 5d3d 4a56 da3a 97a9 15bd 22b4 d03b
000003c0: fcb5 c23d 7108 693c ada7 aabd e179 833c
000003d0: 5bfd 043c 0b5b 17bd 20d2 c33d 298d b2bb
000003e0: 7669 883c 4970 733b a79d 2b3e c7a0 173e
000003f0: 0840 a53c d1fa 2a3c d4bb 203e 75e4 e33d
-0.020872489 -0.0556107 0.103308655 -0.20326775 -0.023518385 -0.07586525 0.074911095 0.041421454
0.19261347 0.11246427 -0.2172608 0.01627404 0.20384875 0.12471864 0.044911537 0.12940879
0.069596894 -0.0020464272 0.18915996 0.01363084 -0.06620326 -0.016560696 0.14823575 0.055986296
-0.023616243 0.16737103 0.01369614 -0.038626824 -0.06543878 0.025172943 -0.053141065 -0.11089527
0.085064 -0.14963624 -0.03942363 0.03449212 -0.096992716 -0.057739407 -0.18400565 -0.091783166
0.05597288 -0.07753366 0.098499276 -0.13213485 -0.15034057 -0.0040311376 -0.01919959 0.34082523
-0.07395078 0.05496851 0.09745364 -0.14004666 -0.10606991 -0.041270446 0.09679595 0.06477455
0.0396322 -0.16376603 -0.17002815 0.0363605 -0.13947918 -0.011848769 -0.026239064 0.0147408545
0.17364305 -0.053429674 0.04952347 -0.09525854 0.22201563 0.068265624 -0.016721612 0.080533914
-0.022065282 0.028161572 0.092303604 0.2365454 0.11677519 0.05483176 0.024407078 -0.04384752
-0.068116896 0.043126974 0.070806555 0.061102767 -0.14459418 0.0013484856 -0.056539178 -0.084107384
-0.03684755 -0.06903458 0.07403165 -0.05049877 -0.047809985 0.27099988 -0.18442668 -0.17946373
0.026190607 -0.0044390047 0.025783079 -0.104793 0.15179135 -0.05693222 0.018131364 0.14723697
0.012364282 0.20951287 0.14469281 0.05093227 0.01421574 -0.03105189 0.078008786 0.06936057
0.05366383 0.1291003 0.19616692 -0.0069779493 -0.025796525 -0.058499154 -0.025467036 -0.027480345
-0.10725286 0.22257665 -0.15091494 -0.042256594 0.16390608 -0.08369106 -0.26762396 -0.046024363
0.10448996 -0.06430142 -0.15797304 0.09212936 0.09190824 -0.120473996 0.063679956 0.010113231
-0.10061203 -0.14911503 -0.10997859 0.06820043 0.031200858 0.079216994 -0.009347198 -0.14791603
-0.086277574 -0.13490367 -0.11342875 0.26302359 -0.039203633 -0.055693474 -0.049700577 0.10848797
0.102999926 0.005235525 -0.082191736 -0.12066999 -0.14928293 0.0429889 0.042471744 -0.121872135
-0.10056247 -0.15476483 -0.07457585 -0.059167013 0.046657525 -0.10711806 0.0066818795 -0.014637895
0.087033555 0.020893268 0.0070300875 0.019926446 0.013455218 0.1410266 0.12444386 -0.057662193
0.20671804 -0.012007666 -0.090240166 -0.05474661 -0.0005786918 0.18445648 -0.13017635 0.26329875
-0.10149826 -0.095119275 -0.014609604 -0.021723365 0.13700366 -0.0831027 0.07049722 -0.14324018
0.011602782 -0.0707269 -0.06496376 0.078955874 -0.01921182 0.023192883 -0.03830283 0.039190784
0.06887078 -0.043022487 -0.031533655 0.03158116 -0.05067891 0.25125524 0.22369389 0.065482214
-0.1103162 -0.015846793 0.11826998 0.07433996 0.06343942 0.22742604 0.047852624 0.19112235
0.18489625 0.27321428 0.08177128 -0.16486561 -0.0070768767 -0.0023752593 0.13960154 0.03442797
0.0899311 -0.20098294 -0.19244364 0.07036591 0.026059547 0.049957816 -0.033873484 -0.073825605
-0.21292023 0.027867448 0.014618719 -0.040817 0.05405784 0.0016657796 -0.036538687 0.0063691298
0.09507367 0.014223204 -0.08332763 0.016049327 0.008117045 -0.03695206 0.095615625 -0.0054489565
0.01665185 0.0037145785 0.16759358 0.14807425 0.020172134 0.010435776 0.1569665 0.11127559

classifier.1.bias f4 [10]
00000000: 8ef9 2e3d 42d2 4cbe fe22 de3e a4f0 d8bc
00000010: 6a0e c0be 1172 15be 0a8f 2f3e c309 71bc
00000020: f45a 493e 8728 f4bd
0.042718463 -0.20002082 0.43386072 -0.026481934 -0.37510997 -0.14594294 0.17144409 -0.0147118
0.19663602 -0.119217925
